neural_network_model.pth (torch, 19877 bytes, 15 tensors)

network.0.weight f4 [64, 3]
00000000: 11f2 e6bc bad1 4ebe 2f40 033f a091 883c
00000010: 8265 f73e 0356 673e 976e d6be 3d4b d73e
00000020: 7951 dfbd d38e e13e 9f0a 073f dea8 b43d
00000030: bffb 043f 7d4d 56bd d606 053e 0895 063f
00000040: 788a 9ebe b6a1 44bc 6830 343d 2c00 13bf
00000050: 195b 493e 007f cdbd f3f0 ebbe 966c d63c
00000060: 0f50 c9be 40af d93e 3a16 e23e 1f44 e1be
00000070: 376d 113f 2d99 a5be 371a 2ebd f8eb f8be
00000080: 19b5 d7be f097 ac3e de29 863d dea5 c53e
00000090: e3e1 f73e 95c5 68be 57be f23e 438e 233e
000000a0: ce53 9abe a8a0 b2be 878c cdbe 8448 cd3e
000000b0: 82c7 a33e 11e4 9bbc fa01 98be 028d 003e
000000c0: 3a1e f6be b306 c8be b8db 9bbe 5cd1 0f3a
000000d0: b627 ba3b 510c 913e 4ccb 5ebe 1598 ce3e
000000e0: 6685 6b3e 60a1 2e3c dc83 033f 29ff 2e3c
000000f0: 8509 a43c d094 483f d929 cf3e 8f01 62be
00000100: 1c92 e73e 0472 043c 97de cdbe 44f1 a23e
00000110: 7a07 e13e 1947 8cbe 5984 88bd fabd f0bd
00000120: 5d41 aebe 9302 07bf 5ded febc 257d 92be
00000130: 377f 303e 10cb 62be 75e8 4cbd 2208 91be
00000140: 58cf 853a 0273 723a f05f 1cbb 9281 d53e
00000150: a51e 80be 072a a1bb 99b9 afbe ce12 84be
00000160: 8af4 00bf 0a54 073f 5b08 a03e 0dab d23d
00000170: b03c 07bf 71a6 e5be 939a d5bd 9170 1a3e
00000180: 3060 06bd 5bf3 a7be c3fb 353d 346c b23e
00000190: 589f f6be 7c7e c33e 96d6 8fbe 63c9 31bd
000001a0: 910d fa3e bd57 89bc 5a43 953e d0f9 7bbe
000001b0: 8320 833e 2cac fcbe 8a87 123e 3626 0b3d
000001c0: f27c 29be cc74 6f3f e848 043a bc45 443d
000001d0: eb4b a63e 2a34 2bbc 50a7 273e c2fc e63e
000001e0: 7879 c4be 79e8 0c3f 1677 d8be 6b2d ad3e
000001f0: 8634 3c3f 7182 be3d 5937 ed3b 1155 9a3e
00000200: 0192 e2bc d4bc 0abf 9e2f 1fbd 6d55 f7bb
00000210: a73e 07bf 7224 4c3d b704 ab3e a398 8cbe
00000220: 4410 0dbf a297 55be 3c9d a73b 5204 5b3e
00000230: 94c9 8a3e 626a 9bbe a6e2 ca3d 9fd5 2b3e
00000240: c578 f8be 6b35 753e 72f9 8ebd ef75 943d
00000250: 2b18 9bbe b03f 1bbf 53d4 9ebc 4452 0fbf
00000260: dafb 1abe 8015 9cbb 4930 38be 7c09 eebd
00000270: 47e8 183e e0c9 0cbf c415 383e d80c 743e
00000280: 26c8 05bf 67d6 bfbc 37c8 a5be 0ba7 a23e
00000290: 03c6 863d 07f4 1c3d c17b 04be 791a 073f
000002a0: a8d0 dbbc 8c05 33bd a425 dd3e 8787 c1be
000002b0: 595e 86be a5a1 38be 87b7 19be 347b 41be
000002c0: 4bef c9be 56fb 813e fcd6 b13e 239e 103f
000002d0: 9ee7 a5be fc76 5ebd 6ce9 41be f752 293e
000002e0: 8cc1 5e3e 68f0 54be e7bc 64be 9965 9bbc
000002f0: 7027 933e 2cd4 cb3c 3667 71be 35c1 bbbe
-0.028191598 -0.20197192 0.5126981 0.016671002 0.48319632 0.22591405 -0.41881248 0.4204959
-0.109042116 0.4405428 0.5275058 0.08821271 0.51946634 -0.052319992 0.12990889 0.52571154
-0.30965018 -0.0120014455 0.043991476 -0.5742214 0.19663657 -0.10033989 -0.46082267 0.026174825
-0.39318892 0.42516518 0.44157583 -0.43997285 0.56807274 -0.32343426 -0.04250547 -0.4861753
-0.42130354 0.3370967 0.06550954 0.3860311 0.48414525 -0.22731622 0.47410843 0.15972237
-0.30142063 -0.34888196 -0.40146276 0.40094388 0.3198815 -0.019029649 -0.29689008 0.1255379
-0.48069936 -0.3906761 -0.3044107 0.0005486214 0.0056810034 0.2832971 -0.21757239 0.40350404
0.23000106 0.010658592 0.51373076 0.010680952 0.02002407 0.7835207 0.40461615 -0.22070907
0.4522866 0.008083824 -0.40208885 0.31824696 0.43951017 -0.27397993 -0.06665868 -0.11754985
-0.34034243 -0.527383 -0.031119043 -0.28611103 0.17236029 -0.22147775 -0.050026376 -0.28326517
0.0010208888 0.0009248705 -0.0023860894 0.41700417 -0.2502338 -0.00491834 -0.34321287 -0.25795597
-0.50373137 0.5286261 0.31256375 0.102865316 -0.52826977 -0.44853547 -0.10429873 0.15082003
-0.032806575 -0.32802853 0.04442955 0.34848177 -0.48168445 0.38182437 -0.28093404 -0.043404948
0.48838475 -0.01676547 0.29152948 -0.24607015 0.25610742 -0.49350107 0.14309517 0.033971988
-0.16551569 0.9353759 0.0005046264 0.047918066 0.32479796 -0.010449449 0.16372418 0.45114714
-0.38373923 0.55042225 -0.42278355 0.33823714 0.73517644 0.093022235 0.007239264 0.30143026
-0.02765751 -0.5419438 -0.03886377 -0.0075480253 -0.52829975 0.049839444 0.33402035 -0.27460203
-0.55102944 -0.20858625 0.0051151793 0.21388367 0.27106917 -0.303546 0.09906511 0.16780709
-0.4852964 0.23946159 -0.06981172 0.072490565 -0.30291876 -0.60644054 -0.019388353 -0.559849
-0.15135136 -0.004763305 -0.1798717 -0.11622903 0.14932357 -0.54995537 0.17977053 0.23833025
-0.5225853 -0.023417665 -0.32379314 0.3176807 0.065807365 0.03831866 -0.12937833 0.5277477
-0.026832893 -0.04370646 0.4319278 -0.37798712 -0.26243857 -0.18030412 -0.15011416 -0.18894655
-0.3944038 0.25387067 0.34734333 0.564913 -0.32403272 -0.05431269 -0.189367 0.16535555
0.2175352 -0.20794833 -0.22337686 -0.018969344 0.28741026 0.024881445 -0.23574528 -0.36670843

network.0.bias f4 [64]
00000000: 0dc1 c0bd 13e6 26be f7cc ab3c b0f5 e53e
00000010: c41f 67be c1f6 123f 741c 17bf 873b 943e
00000020: 2318 83be b774 0ebf b9bd ffbe 2757 233d
00000030: 082c 073f 70bf 573d 87ac 33be 2960 edbd
00000040: 4d0f efbe 74ee cebc a799 f83e cebd e33e
00000050: c5eb 02bd ca69 cbbe 4464 0e3e 68b9 113f
00000060: c68f 28be 541d 8cbe c731 a1be ec72 303e
00000070: 7ce2 b0be 9485 8f3e a4dd 0b3f c3cb 993e
00000080: 7318 1c3e 043a 95be 545f f43d 71b6 893d
00000090: b03b 34be 0abb 543e 1db3 683e 6547 093e
000000a0: b295 ec3e 4839 d2be 7adc 193e b9b0 7e3e
000000b0: 780f e33e 9b50 0e3d cc34 2cbe 5d41 b43e
000000c0: b534 6abe 80ec 283e 064e 973e fb08 10bf
000000d0: 6f92 973f 2033 2e3f 1ef9 a53e 163b 6d3e
000000e0: 1b00 97bd 59f6 cabd 0616 a83e 5f2f 6e3d
000000f0: ba2d fa3e ee49 0abe 6ebf 98be cc07 21bf
-0.094118215 -0.16298704 0.020971758 0.44914007 -0.22570711 0.57407767 -0.5902779 0.28951666
-0.25604352 -0.5564684 -0.49949434 0.039878037 0.5280156 0.052672803 -0.17546283 -0.11590607
-0.4669136 -0.025260188 0.48554727 0.44480747 -0.03196313 -0.39729148 0.13905436 0.5692353
-0.16461095 -0.27366126 -0.3148329 0.17231339 -0.34547794 0.280316 0.5463507 0.3003827
0.15243702 -0.29145825 0.11932245 0.06724251 -0.17600894 0.20774475 0.22724576 0.13406141
0.46207958 -0.41059327 0.15025511 0.24872102 0.4434774 0.03474484 -0.16817015 0.35206118
-0.22871669 0.16496468 0.29551715 -0.56263703 1.1841563 0.6804676 0.32416624 0.23167071
-0.07373067 -0.09910268 0.32829303 0.058150645 0.48863012 -0.13504764 -0.2983355 -0.6290252

network.2.weight f4 [64]
00000000: 1856 773f 05f6 863f 7803 803f 5b41 6c3f
00000010: d611 683f dbee 593f 8034 5c3f 0000 803f
00000020: 48e9 833f 7209 763f 0000 803f e9e8 653f
00000030: ea8b 613f f5e4 653f 61b0 773f 9dba 773f
00000040: 0000 803f 4477 393f 6dd2 7c3f b43d 923f
00000050: f05c 8e3f 85d8 723f e8f0 7d3f 0000 803f
00000060: 0000 803f 0000 803f 0000 803f f7c2 413f
00000070: 0000 803f 0000 803f 979e 6c3f 0000 803f
00000080: 0000 803f e6c6 5b3f 0000 803f 5b18 a83f
00000090: f1dc 593f 2904 473f effa 543f 9c87 813f
000000a0: f9ec 803f 20ef 733f 436f 8d3f 0000 803f
000000b0: 0000 803f 0000 803f caaf 803f e72a 733f
000000c0: 0000 803f 81ca 3b3f 0000 803f be84 7c3f
000000d0: ffb4 4c3f a4ca 4e3f d029 823f b3ed 523f
000000e0: 5c24 823f 0000 803f 0000 803f ab59 6e3f
000000f0: 0000 803f e9e7 773f 0000 803f cace 663f
0.96615744 1.0543829 1.0001059 0.92287225 0.90652215 0.8513009 0.8601761 1.0
1.0305567 0.9610816 1.0 0.8980852 0.88104117 0.89802486 0.9675351 0.96769124
1.0 0.7244761 0.98758584 1.142508 1.1122112 0.9486163 0.9919572 1.0
1.0 1.0 1.0 0.7568812 1.0 1.0 0.9242949 1.0
1.0 0.8585037 1.0 1.3132433 0.85102755 0.7774072 0.83195394 1.011951
1.0072318 0.9528675 1.1049579 1.0 1.0 1.0 1.0053647 0.9498734
1.0 0.7335587 1.0 0.9864005 0.7996368 0.80777955 1.016901 0.8239395
1.0167346 1.0 1.0 0.9310557 1.0 0.9683824 1.0 0.90159285

network.2.bias f4 [64]
00000000: 0a37 843e f2be 613d 4ab0 213d 62fb 99be
00000010: 9fc2 94be 4724 d7be d829 733e 7409 b23c
00000020: f5f4 963d a65d 813d 6ac5 00bd cd52 4cbe
00000030: 13d2 dfbe d15d b8bc 18ae 373d efbf 033d
00000040: c2ce ac3c 2b30 24bf 2399 293e e6d5 63bc
00000050: 12b6 ec3c 440d 0a3e 8438 9bbb 71af 7e3c
00000060: dc99 0d3b 4096 01bd 6aed 94bb 399f 34bf
00000070: 32cf 113d ccd6 0fbd 7693 0bbe 19ca ffbc
00000080: 687a 173d 1b2f 5dbe f819 c63c 3e00 8f3e
00000090: ec8f 9ebe b51a 00bf 0299 ebbe c204 16be
000000a0: 0517 ce3d 713d 52be 541f 5cbc f2af d6bb
000000b0: 8d0e a13c dd58 993c a4b0 403d 27a5 d0bc
000000c0: 1836 ca3c 66f8 af3e e318 02bd 1a02 933c
000000d0: f26f 6a3e 7df5 1abe 20ca 01bc b8a4 8cbe
000000e0: dbdb 4f3e 9461 743c f49c febc 0b7e 85be
000000f0: c71b 043d e4a7 aabe 47aa 43ba 5faa 6f3d
0.2582324 0.05511374 0.039474763 -0.30074602 -0.29054734 -0.42019865 0.23746431 0.021733023
0.073709406 0.0631669 -0.03143827 -0.19953461 -0.4371496 -0.022505673 0.044843763 0.032165464
0.021094684 -0.64136 0.16562323 -0.013905978 0.028895412 0.13481623 -0.004736962 0.015544758
0.00216066 -0.03163743 -0.0045449035 -0.70555454 0.035597987 -0.035116956 -0.1363047 -0.031224297
0.03698197 -0.216 0.024182305 0.27929872 -0.3096918 -0.5004075 -0.46015173 -0.14650252
0.100629844 -0.2053125 -0.013435204 -0.006551736 0.019660259 0.018719131 0.047043458 -0.025469376
0.024683997 0.343692 -0.031762015 0.017945338 0.22894266 -0.15132709 -0.0079217255 -0.2746942
0.20298712 0.014915843 -0.0310807 -0.26072726 0.032253053 -0.33331215 -0.0007464033 0.058512088

network.2.running_mean f4 [64]
00000000: eb2f 5840 57af 8742 c507 b03e 5a5b c943
00000010: 0aea cd43 9b5d c143 0312 8041 0000 0000
00000020: 3567 6c3f 6007 973f 0000 0000 cb60 9143
00000030: 6037 bf43 dc4e ad42 bb2c 123f da9b 103c
00000040: 0000 0000 8ff0 5a41 8a60 5b40 a271 6542
00000050: 8e4d d442 898a 8140 fbe4 6b3e 0000 0000
00000060: 0000 0000 0000 0000 0000 0000 1121 9b41
00000070: 0000 0000 0000 0000 2c7e 6a43 0000 0000
00000080: 0000 0000 c065 7843 0000 0000 58a4 4a41
00000090: 7ef1 2443 fba4 5c42 578f 9e41 a429 ce41
000000a0: 5cd8 cc3f 8968 a943 f773 fd41 0000 0000
000000b0: 0000 0000 0000 0000 4ff8 1042 6b31 4d3b
000000c0: 0000 0000 0a85 a041 0000 0000 0400 0000
000000d0: 6fba af42 d920 1243 5652 a13e 4c63 2f42
000000e0: 71b9 8940 0000 0000 0000 0000 e994 8043
000000f0: 0000 0000 6939 0c43 0000 0000 ca54 3940
3.3779247 67.84246 0.34380928 402.71368 411.82843 386.7313 16.008795 0.0
0.9234498 1.1799126 0.0 290.7562 382.43262 86.65402 0.57099503 0.00882622
0.0 13.68373 3.4277673 57.36097 106.151474 4.048161 0.23036568 0.0
0.0 0.0 0.0 19.391146 0.0 0.0 234.49286 0.0
0.0 248.39746 0.0 12.665123 164.94333 55.161114 19.81999 25.770332
1.6003528 338.81668 31.681623 0.0 0.0 0.0 36.24249 0.0031309973
0.0 20.06496 0.0 6e-45 87.86413 146.12831 0.3150813 43.84697
4.303887 0.0 0.0 257.16336 0.0 140.22426 0.0 2.8958

network.2.running_var f4 [64]
00000000: 22cc 4842 29cb 2c45 6261 0b42 3678 ec46
00000010: 5373 2047 c5a8 2e47 d36c c343 0400 0000
00000020: 0fa9 0e43 64d7 e742 0400 0000 512f 8446
00000030: 22a7 0f47 7183 9945 b851 b242 d5c9 e03c
00000040: 0400 0000 5491 6f42 84d1 a243 9bf5 4545
00000050: fb68 e445 0a6b bf43 7c9a 5742 0400 0000
00000060: 0400 0000 0400 0000 0400 0000 13f2 0243
00000070: 0400 0000 0400 0000 2667 6e46 0400 0000
00000080: 0400 0000 3d1c ad46 0400 0000 0ecc 5444
00000090: 0f41 4346 d086 7f44 d537 ce42 ec84 f143
000000a0: a345 0c43 ef32 a446 252b 8944 0400 0000
000000b0: 0400 0000 0400 0000 09bb 0e44 5311 4e3d
000000c0: 0400 0000 f265 5844 0400 0000 0400 0000
000000d0: ced2 9045 c20a 2f46 cdfa fc41 8ba6 1144
000000e0: 34e8 6942 0400 0000 0400 0000 3117 1c46
000000f0: 0400 0000 e0b5 8845 0400 0000 bfb9 4042
50.19935 2764.6975 34.8451 30268.105 41075.324 44712.77 390.8502 6e-45
142.66039 115.920685 6e-45 16919.658 36775.133 4912.43 89.15961 0.027439991
6e-45 59.891922 325.63684 3167.3503 7309.1226 382.83624 53.900864 6e-45
6e-45 6e-45 6e-45 130.9456 6e-45 6e-45 15257.787 6e-45
6e-45 22158.12 6e-45 851.18835 12496.265 1022.10645 103.10905 483.03845
140.27202 21017.467 1097.3483 6e-45 6e-45 6e-45 570.9224 0.05030949
6e-45 865.5929 6e-45 6e-45 4634.3506 11202.689 31.622461 582.60223
58.47676 6e-45 6e-45 9989.798 6e-45 4374.7344 6e-45 48.181393

network.4.weight f4 [32, 64]
00000000: 5409 16bd 1d87 063c 07ae f73c 6e10 7b3c
00000010: 9b23 453c 97b9 203c 1ba7 76bc a996 c9bd
00000020: 72ab 0abe 890f 53bd d969 e73d 3c4f 1f3d
00000030: 257e e93c 5246 953c 7e0c d1bd 0c6e a0bc
00000040: c53f 09bc 9312 003e 2d54 b3bc f0c5 873b
00000050: 3db7 c43c 13db 413d 20da 783d fd29 2bbd
00000060: 148f 823c 83b4 123e 23cf f63d afec 053e
00000070: 4c71 06be 6c20 e73d ea6a 273c 0bd0 173e
00000080: 0526 bcbd 426e aa3c 3421 42bd befd 2ebd
00000090: 92a5 163d dd1d 193e b16c 083e cb29 4a3d
000000a0: 9f01 10be e0cc 1c3c b93e 44bc 6b15 b43d
000000b0: 135f 0fbe f7e2 22bd bcbb 5b3d da55 733d
000000c0: f26f a0bd 3faa 9ebd 5a82 ef3d e626 18bd
000000d0: 7798 4abc b4dd 553d 3ece 39bd b51f d83d
000000e0: 0b51 493e 7a76 1fbd d391 763d 81d7 a33c
000000f0: a301 3abe 1807 223c a44d 553d 4857 403c
00000100: 4ab7 27bd c687 16be 1e15 8cbd e257 0abc
00000110: 6bfc 40bc cee7 d03a 647a bdbd be47 173e
00000120: c627 07be f9a3 0dbc 49dd f0bd f80b 1fbd
00000130: ab4c 45bd c5f1 c53d e63d b23d e432 dd3b
00000140: da6d 223d 2728 363d 87ea f5bd aaf9 61bd
00000150: 8bd9 1cbe 26b4 8f3d 5194 2cbd ab2f bc3d
00000160: d6be 93bb 3315 34be 3833 0ebe 8cbd 943c
00000170: a5ba 5f3d f1cb 38bd 3f99 74bd 90ba 03be
00000180: a979 623b fa26 04bc 401d d1bb fbac 8dbd
00000190: 664a 813d 6175 21bd d855 6b3c fb54 2cbd
000001a0: 4709 0f3d dbca c9bd fd32 fabd 453b 19be
000001b0: 7da8 ebbc 4819 b13d 9f07 33bd 9db7 55bc
000001c0: 2965 1c3e e55c 45bd 318a 3cbd b642 9f3d
000001d0: bcfe c53c 5a9b f63c e5cb a53c ae23 14bd
000001e0: 20d5 51bd c150 993d af21 b63c b3f0 d83c
000001f0: 16ad fa3d 1484 783b b7c0 493d 08a3 a5bd
00000200: 6d79 1f3e c1d3 443e 789c 003d 3c6d 403d
00000210: a9d3 993b 2499 cd3c 1857 cc3c 96f4 173d
00000220: d476 96bd 914d 35bc 8068 56bd dad9 303c
00000230: c59a 5a3c f6e7 20bd 67bb 293c 1038 e4bd
00000240: 6d74 b5bd e151 653d 547f bfbd c094 c73a
00000250: b7e5 013e fa8a 143c 453d 95bc 47a0 38bd
00000260: 58d4 913c b6cb 053c 514e ebbc 32cb cdbc
00000270: 4df5 193d d5cc 573c 3da8 0ebd 8ac9 f2bc
00000280: 25f1 b8bd c4d7 a03c 725b 83bd 5f5b 1e3e
00000290: b0e2 8fbc 21d0 9abd 8c50 2f3d b933 ec3d
000002a0: acf6 0d3d 6920 d83c eb3b 593c b159 66bd
000002b0: 95c2 d33c 46d7 5d3d c5b8 0c3e 11e7 a23d
000002c0: 02b4 3f3d 1c4e 063d 1960 d33d ff87 a73d
000002d0: cb1d 23be c3bd 2a3c b04e e8bd 57ac 9fbd
000002e0: b6b7 13be f009 cebc f684 9a3c de50 eb3c
000002f0: be73 4639 d580 3d3d d17f d3bd c2f6 8dba
00000300: 1bdb ab3d 854d a03c 24ed e33c 4629 873d
00000310: c834 a13d 68d9 1b3e a635 aebc 8ed1 41be
00000320: 62e7 82bd 2a7c d63d c769 633e 8dbd d13d
00000330: 326e 933d 6f68 a33c c38b a8bd 3639 993d
00000340: 44a7 7fbe cf4f d13b 6147 9dbd b233 37bd
00000350: 5e23 963c 2b26 dc3d b2fb 02bd 76ad 79be
00000360: 223d a03d 8da2 493e 3f73 b93d 8a57 71bc
00000370: d761 4dbe b05c a83d b997 c33d 3e0e f33d
00000380: 34c2 32be 4e1e 0c3e e145 4cbe 5550 323d
00000390: dfcc 063e c9df eab9 0c44 98bc edfc 06bd
000003a0: b4ce 2d3d 3fc9 f43d 1bc6 a33c 97a0 2a3e
000003b0: e72f 37be 27c0 2dbe 3d7e 9cbc 9b20 fcbc
000003c0: 9d89 c4bd 442a 063d 61b2 803e 1941 a5bd
000003d0: 9e49 c4bb d4f0 683d bf89 713d 543c a53c
000003e0: 78c6 d03c a60a 44be 8eea 143e 64e3 313e
000003f0: b292 f4bd 9209 173e 0250 c53d dc5e 92bb
-0.03662999 0.008210924 0.03023435 0.015323741 0.012032415 0.009809873 -0.0150544895 -0.09843189
-0.13541964 -0.051528487 0.11299486 0.038893923 0.028502533 0.018222008 -0.10207461 -0.019583724
-0.00837702 0.12507086 -0.021890724 0.004143469 0.024013156 0.047328066 0.060754895 -0.04178809
0.015937366 0.14326672 0.12051227 0.13078569 -0.13129157 0.11285481 0.010218361 0.14825456
-0.09186939 0.020804528 -0.047394946 -0.042722456 0.036778994 0.14952798 0.13322712 0.049356263
-0.14063118 0.00957033 -0.011977845 0.08793148 -0.14001112 -0.03976723 0.053645834 0.059408046
-0.07833852 -0.077473156 0.116947845 -0.03714647 -0.012365452 0.052213386 -0.045362704 0.10552923
0.19659822 -0.038931347 0.060197663 0.020000221 -0.18164687 0.009889387 0.052075997 0.0117395595
-0.040946282 -0.14700231 -0.06839965 -0.008443804 -0.011778931 0.0015938224 -0.0925186 0.14773461
-0.13198766 -0.008645051 -0.11760957 -0.038829774 -0.04816882 0.096652545 0.087032124 0.0067504514
0.039655544 0.044471886 -0.12007623 -0.05516974 -0.15317361 0.070167825 -0.042133633 0.091887794
-0.0045088334 -0.17586212 -0.13886726 0.01815679 0.054621357 -0.04511637 -0.05971646 -0.12864137
0.0034557378 -0.008065933 -0.0063816607 -0.06917759 0.063130185 -0.039418582 0.014363728 -0.04207323
0.034920957 -0.09853145 -0.122167565 -0.14964016 -0.028766865 0.086474 -0.04370844 -0.013044265
0.15272965 -0.048184294 -0.046030227 0.07776396 0.024169318 0.030103374 0.020238826 -0.03616684
-0.051228642 0.07486106 0.022232858 0.026481962 0.12240045 0.0037920522 0.049256053 -0.08087736
0.15573664 0.19221403 0.03139922 0.046979174 0.0046944213 0.025097437 0.024943873 0.03709849
-0.073468834 -0.011065857 -0.052345753 0.010794127 0.013342564 -0.039283715 0.010359622 -0.111435056
-0.08860097 0.05598629 -0.09350458 0.0015226826 0.12685286 0.009066338 -0.018217692 -0.045074727
0.017801449 0.008166244 -0.028723868 -0.025121305 0.037587453 0.013171394 -0.034828413 -0.029637117
-0.0903037 0.019634135 -0.06413926 0.15464543 -0.017564148 -0.07559229 0.042801425 0.11533303
0.034659073 0.026382642 0.013258914 -0.05623788 0.02584962 0.05416038 0.13742359 0.07954229
0.04680253 0.032789335 0.103210635 0.08180236 -0.15929334 0.010421219 -0.113431334 -0.07796543
-0.14425549 -0.025151223 0.018862229 0.028725084 0.00018925869 0.046265442 -0.103271134 -0.0010830986
0.083914004 0.019568214 0.027823038 0.06599669 0.07871395 0.15219653 -0.021265816 -0.18927595
-0.06391789 0.10472901 0.2220832 0.10241232 0.071987525 0.019947259 -0.082297824 0.07481615
-0.2496615 0.0063876878 -0.0767963 -0.044727035 0.018327411 0.107494675 -0.031978317 -0.24382576
0.0782416 0.19690914 0.090551846 -0.014730344 -0.20056854 0.08220804 0.09550423 0.11867951
-0.17456895 0.13683435 -0.19948532 0.04353364 0.1316409 -0.0004479869 -0.018587135 -0.032956053
0.042433456 0.11952447 0.019991925 0.16662823 -0.17889367 -0.16967832 -0.019103164 -0.030777266
-0.0959656 0.03275515 0.25136092 -0.08069057 -0.005990221 0.056870297 0.058969256 0.020170368
0.025485262 -0.19144687 0.145426 0.17371899 -0.119420424 0.14749745 0.09634401 -0.0044668745

network.4.bias f4 [32]
00000000: e8bb 98bd 68f5 023e 281d db3c 123a 76bd
00000010: 0145 f83c d14a d2bd 51ac b0bd a181 69bc
00000020: 21df 76bd 6465 2d3c c774 f1bd 34b4 a8bd
00000030: fe29 91bd 3789 da3d a632 0b3c ec64 da3d
00000040: eabf ab3d 7565 74bb 443c 6ebd 5e52 82bc
00000050: c141 3dbd 817b 033d 3e7c 153e ad24 0cbc
00000060: e400 243c d1a4 67bc 681a 2fbc ccef fb3c
00000070: 3e46 43be 212f e4bd 8517 bcbd 9de7 d03d
-0.07457715 0.12788928 0.026747301 -0.060113974 0.030306341 -0.10268176 -0.08626617 -0.014252097
-0.060271386 0.010583255 -0.11789852 -0.08237496 -0.070880875 0.10670703 0.008495962 0.106637806
0.08386214 -0.0037291918 -0.058162943 -0.015908416 -0.046205286 0.032100204 0.14598176 -0.008553666
0.010009978 -0.014138416 -0.010687448 0.030753992 -0.19069764 -0.111418016 -0.091841735 0.10200427

network.6.weight f4 [32]
00000000: be24 583f 15d9 6e3f ff9b 703f bc50 623f
00000010: 2936 653f 321f 7e3f 512e 6a3f 6175 683f
00000020: 879a 5d3f 36b3 653f 5533 8b3f 3e93 6e3f
00000030: 5342 953f a70e 653f f81e 773f d386 6b3f
00000040: 18a4 6d3f 1c08 623f 44d4 803f c1ce 853f
00000050: 9b90 773f 0362 513f ea2a 5d3f 9217 743f
00000060: 9b8c 543f 6de1 673f e9e4 583f 896d 853f
00000070: a229 623f e4ec 8f3f 28b4 903f 9e4b 663f
0.84431064 0.9329999 0.9398803 0.8840444 0.89535767 0.9926635 0.91476923 0.90804106
0.86563915 0.8972658 1.087504 0.93193424 1.1660866 0.8947548 0.9653163 0.920026
0.9282851 0.88293624 1.0064778 1.0453721 0.96705025 0.8179018 0.86393607 0.95348465
0.83027047 0.9057835 0.8472429 1.0424052 0.88344777 1.1244168 1.1304979 0.8995913

network.6.bias f4 [32]
00000000: 2b38 593e 1397 9f3c e057 683e 14fd 903e
00000010: 31cf f33d 2be5 8f3e 833e a43e 6671 6a3d
00000020: 7da5 923d fdcd bb3d 913e bc3e e302 3f3e
00000030: c355 b43e 10a8 6fbc 5b33 af3e 9894 e03d
00000040: b54e b83c 3064 df3d 2664 ac3e cf80 b33e
00000050: 8baa 903e ccf2 82bb 13d4 b33d 429d 783e
00000060: 486b 8dbd eef2 aa3e d432 0e3e b372 bb3e
00000070: 44af 513e 9589 b63e bca8 c43e 4847 e63c
0.21212833 0.019481217 0.22689772 0.28318083 0.11904753 0.2810453 0.32078943 0.05723705
0.07160471 0.091701485 0.36766484 0.18653445 0.3522168 -0.014627472 0.3421887 0.10965842
0.022498468 0.10907781 0.33670157 0.3505921 0.28255114 -0.003996229 0.08780684 0.24278739
-0.06905228 0.33388466 0.13886577 0.36610946 0.20477015 0.35651842 0.38409984 0.028110161

network.6.running_mean f4 [32]
00000000: 77be af3d 971f a13e fdae 9c3e 6760 8f3e
00000010: fab8 c73d 10be 9d3d 2368 8d3e 7310 493e
00000020: 647d b23e beda 7c3e b00a 883e 411c 663e
00000030: 78b7 223e b4de 6d3e 8b01 d03e 526e 943e
00000040: 7f13 b13e 0697 8a3e 2d6e 9a3e 1065 9a3e
00000050: 1c9e 843d ffd1 d63e 4175 993e a46a 903e
00000060: 9005 353f 57b0 7e3e 6995 813e 517e e83e
00000070: 4d36 803e 27fe 933d 7479 863e ecad 143f
0.0858125 0.31469414 0.30602255 0.28003237 0.09752078 0.07702267 0.27618513 0.19635181
0.3486129 0.24692819 0.26570654 0.22471716 0.158903 0.23229486 0.40626177 0.28990418
0.34585187 0.27068347 0.30162182 0.3015523 0.064754695 0.4195709 0.2997227 0.2820636
0.7071161 0.24871956 0.25309303 0.45408872 0.25041428 0.0722621 0.26264536 0.58077884

network.6.running_var f4 [32]
00000000: 32d0 713d 8b55 9d3d dda2 1b3f ebdb 043f
00000010: 9f44 283e bf5a 2c3d b51e c23e 7f2f 593e
00000020: d749 c93d 4648 eb3e 2b42 fd3e 067b c33e
00000030: a637 723e 9094 5f3d 79cd 693f d134 c83d
00000040: bae0 f73d ce3e 093f 1c1b 213f b938 2a3f
00000050: 2630 f73c 6ee5 253e 0023 393f 22dc 0b3f
00000060: 6084 da3e 76fd 8e3e 9473 b63e dc85 a43f
00000070: df2c e73e 105d 183d faaf f43e 4a7b 913e
0.05903644 0.07682332 0.60795385 0.5189807 0.16432427 0.04207873 0.37914053 0.21209525
0.09828537 0.45953578 0.49464545 0.38179797 0.2365404 0.05458504 0.9132915 0.09775699
0.1210341 0.5361146 0.6293199 0.664928 0.030174326 0.16200802 0.7231903 0.5463277
0.4267912 0.2792775 0.35635054 1.2853351 0.4515142 0.037198126 0.4779051 0.28414375

network.8.weight f4 [16, 32]
00000000: 2f32 85bd 262d e93a 610b 813c eb96 56be
00000010: f38c debd d651 f8bd 6a3c 30be 1e65 85bd
00000020: f137 c3bc 45da 44bc babb 8fbe 2d2d 60bc
00000030: dbaa bdbe a47c 503b 2eb2 6abe f5c9 8bbb
00000040: 87c2 263b c52d b8bd 4227 a2be 50cd 82be
00000050: 1bd2 1cbe f9e5 69bb d5d5 6b3d 17f8 fe3a
00000060: d21e d63b 21e4 c7bb 8e64 cfbd df9e 3cbd
00000070: 34ec 933c 0e0a 63be 88de 56be 5e8a f33b
00000080: 92bb 33be dd6c 283c 461e 83bd d0a9 1cbe
00000090: 4d65 f6bc 0819 47be e8df 2ebe 8026 cc3c
000000a0: eb21 04bb c89f 12be 6142 8abe 638c 10bd
000000b0: 932f 8bbe d066 05bc 4edc f7bc 0152 87bc
000000c0: 0004 2e3b 6b59 9ebd 0520 84be 723f 78be
000000d0: adbe d9bd 9de4 553c 3563 d7bd 2a6e ccbd
000000e0: a7f9 623c 3dd0 96bd 7ac8 51bd 0fa1 95be
000000f0: e646 1fbe 2628 5fbe 295d 1cbe ec45 64bb
00000100: d26b 303d 9149 5fbd dbc1 033d b5d4 8c3d
00000110: 7f5f a63d 5ed9 d5bc 47f9 08bd bba8 9ebd
00000120: 2d2c 803d c977 4dbd 2290 b03d 5d07 21bd
00000130: 0032 493c bf2c 9bbd 7c77 2d3d f4bf 09be
00000140: 2c47 16be d67f 56bd 0470 3fbd ce1f f9bc
00000150: 4e19 c1bb a42a 1cbe 9055 82bd 3bef 11ba
00000160: cb31 0eba 17ca ccbd 92c1 933d 7bae bc3c
00000170: e383 04bc cf50 983d 4150 a73c 4413 c0bd
00000180: 3f11 833d 6934 19be 955a b63c f1fd 24be
00000190: bbcf 85bd 05b2 7c3d ae9c 9ebd efa8 ae3d
000001a0: 922a c5bd 01eb 13be 1174 b6bc 473a e0bd
000001b0: e9ea d4bc d7f0 03be b08b 18be 0737 1bbe
000001c0: 7c8f e4bd 1fc5 a43d 7820 093d 9cf1 093d
000001d0: b7f6 fcb9 b74f adbd 0c88 26bb 20b7 81bd
000001e0: 57e3 b23d 3c3b 4d3d b4da 063d ca2a 083d
000001f0: d057 05be 17bf acbd eeda a3bd b5fb bd3d
00000200: 9395 743d 2b34 b13d 69fe 573d 078b 92bc
00000210: a633 9abd 1b73 a3bd 9e85 31bd cbeb 9c3d
00000220: 02f7 4dbd 7cbf aa3d 5268 01be 0918 dfbd
00000230: d2f1 21bd eda5 1e3d f94d 0e3e 6d85 2d3c
00000240: 48ee 523d 740e 1bbd fff0 cc3d cea0 b73d
00000250: 80a7 683d 26b0 d9bc b407 91bd 290a 92bc
00000260: f26a 11bd 9ced 383d 1d05 10be 0252 91bc
00000270: 2517 c63d ec67 c23d 39ae babd cdc4 023d
00000280: 79e5 dcbd db4f 0abd 469c 95bd 09ae 83be
00000290: 5226 40be 0d1a 2ebe dadc 96bd 7171 263d
000002a0: 317b 133d 0d05 103d f7bb 0bbe 2bf2 b5bd
000002b0: 35b2 27be cfce f33b 3dc4 9c3c 34e4 b63c
000002c0: a3d1 b63c 8a62 17be 260e 68be dafe 85be
000002d0: fc61 18be 06ec 0ebd c7d6 9b3d 186a cbbd
000002e0: 0197 bbbc c49e 22be d923 34bd 3008 93bd
000002f0: 989f 41be c7dc 2dbe b344 f1bd cd5e a33c
00000300: 45c6 0fbe dc78 843b e186 9abd 7eb3 efbd
00000310: a0f3 50bd 82c2 f1bd 2ec0 24bd dc32 0b3d
00000320: ce60 11bc 5c54 e03b d84c a0be b5b1 0dbe
00000330: 00e6 d2be 0360 bd3b 23cf e5bd 77dc e7bb
00000340: 7c41 2fbb 3049 07bd 232c 0abe eb92 aebe
00000350: bae3 2abe 87bc 0b3c 9aba 66bd 0de1 2bbd
00000360: 996e 1a3b bc20 02be c99f cdbd 4f37 61bd
00000370: adf3 31be 995d 69be a1d0 1bbe ad4c 5d39
00000380: a8d2 c8bc d8f9 133c d484 18be 06b3 62be
00000390: 865a 7dbd 8e2e dcbd a911 853b 0487 a1bd
000003a0: 0010 5bbc 3719 e03c 501a 33be ea52 96bd
000003b0: f319 83be dc66 0d3b 1402 cc3c c988 273c
000003c0: 66fa c0bb ab79 883c 0f5a ebbd 1f81 a2be
000003d0: eb1d 2bbe a1d7 9fbb 32bf b33b 1b3a 10bd
000003e0: b82f 053b ac82 0dbe 2c13 7abc a542 58be
000003f0: 6958 673d 5871 62be 14bc a1be 4265 d73a
-0.065037124 0.0017789945 0.015752496 -0.20956008 -0.10866728 -0.12124984 -0.17210546 -0.06513427
-0.023830386 -0.01201493 -0.28072912 -0.013682646 -0.37044415 0.0031812573 -0.22919533 -0.0042660185
0.0025445537 -0.08993105 -0.31670576 -0.25547266 -0.15314524 -0.0035690053 0.057576973 0.0019452599
0.006534436 -0.006100193 -0.10126601 -0.04604995 0.018056966 -0.22171804 -0.20983326 0.007432266
-0.17552021 0.010279861 -0.064022586 -0.15299153 -0.0300776 -0.19443142 -0.17077601 0.024920702
-0.0020161818 -0.14318764 -0.27003768 -0.035290133 -0.27184734 -0.008142188 -0.030256417 -0.016518595
0.0026552677 -0.07731899 -0.2580568 -0.24242952 -0.10632072 0.013054994 -0.10516969 -0.099819496
0.013853467 -0.07363937 -0.05121658 -0.2922444 -0.1555439 -0.21792659 -0.15269913 -0.0034831716
0.043071575 -0.054513518 0.032167297 0.06876508 0.08123683 -0.026104625 -0.033440854 -0.077470265
0.06258426 -0.050163064 0.08621241 -0.039313663 0.012279987 -0.07576894 0.042350277 -0.1345213
-0.14675587 -0.052368008 -0.046737686 -0.030410673 -0.005892909 -0.15250641 -0.06363976 -0.0005566959
-0.000542429 -0.09999483 0.07214655 0.023032418 -0.008088085 0.07437288 0.02042401 -0.093786746
0.06399774 -0.14961399 0.02225999 -0.16112496 -0.06533762 0.06169321 -0.07744728 0.08528315
-0.0962726 -0.14445116 -0.022272142 -0.109486155 -0.02599092 -0.12884842 -0.14897037 -0.1515771
-0.1116018 0.0804541 0.03347823 0.033677682 -0.00048249002 -0.0846247 -0.002541068 -0.063337564
0.08734768 0.05010532 0.032923415 0.03324393 -0.13021779 -0.08434885 -0.08000742 0.09276525
0.059712958 0.086525284 0.05273286 -0.017888559 -0.075293824 -0.07980939 -0.043340318 0.076621614
-0.050284393 0.08337304 -0.12637451 -0.10893256 -0.03953726 0.038732458 0.13896932 0.010590893
0.051496774 -0.03785558 0.10006904 0.08966218 0.056800365 -0.026573252 -0.070815474 -0.01782711
-0.03550238 0.045148477 -0.1406445 -0.0177393 0.09672383 0.09492478 -0.091152616 0.031925965
-0.10785956 -0.033767562 -0.073051974 -0.25718716 -0.18764618 -0.17002125 -0.07366343 0.04063553
0.036006156 0.035161067 -0.13645922 -0.088840805 -0.16376574 0.007440425 0.019136542 0.022325613
0.02231676 -0.14783683 -0.22661647 -0.26171 -0.14881128 -0.03489306 0.07609325 -0.09932345
-0.022899153 -0.15880877 -0.0439795 -0.07179296 -0.18908536 -0.16978751 -0.117806815 0.019942665
-0.14040478 0.004042728 -0.07545257 -0.11704157 -0.05101359 -0.118046775 -0.04022234 0.03398405
-0.008873178 0.006845994 -0.31308627 -0.13837321 -0.411911 0.0057792678 -0.11221149 -0.007075842
-0.0026741913 -0.03302878 -0.134934 -0.34096465 -0.16688433 0.008528835 -0.0563303 -0.041962672
0.0023564456 -0.127078 -0.10040242 -0.054984387 -0.17378111 -0.22789611 -0.15216304 0.00021104766
-0.024514511 0.009031735 -0.1489442 -0.22138605 -0.061853908 -0.10751067 0.004060943 -0.0788708
-0.013370514 0.027355773 -0.17490506 -0.07340033 -0.25605735 0.0021576202 0.024903335 0.010225483
-0.005889225 0.016659578 -0.11491787 -0.31739137 -0.16710632 -0.004878 0.0054854387 -0.035211664
0.0020322632 -0.13819379 -0.01526336 -0.21119173 0.0564808 -0.2211355 -0.31588805 0.0016433375

network.8.bias f4 [16]
00000000: c8ae 6d3e 8f8b 373e 3d22 fe3d 368b 51bd
00000010: b28a 5ebe 0dee 353e 6d2f 4d3e feea 463e
00000020: e33a 503d d894 4b3e 6133 0c3e 1361 643e
00000030: 8669 ca3d e3da f1bd b0af d13d 46c4 86be
0.23211205 0.17924331 0.12408874 -0.051158153 -0.21732596 0.1776659 0.20037623 0.1942558
0.05083741 0.19880998 0.13691474 0.22302656 0.09883408 -0.118093275 0.10238588 -0.2632162

network.11.weight f4 [1, 16]
00000000: 957d 573e e451 623e 0f4f 86bd d56d a5bd
00000010: 133b 22bd 248d 503e 0f1f 713e 2b04 853e
00000020: 0e8c 9abd 89d4 533e c691 813e 453b 4c3e
00000030: 1742 8d3e 884c 5abd b73f ddbc 6f28 823c
0.21044 0.22101551 -0.06558048 -0.080775894 -0.03960712 0.20366341 0.23547004 0.25979742
-0.075462446 0.20686544 0.2530653 0.19944485 0.27589485 -0.053295642 -0.02700792 0.01588842
